Twitter-Bot/ReplyBot/data.pth (torch, 5279 bytes, 6 tensors)

l1.weight f4 [8, 54]
00000000: aa28 2e3e b7de b13e 478b 3f3f a859 23be
00000010: 604b 943d 85d8 fa3e ab1b 8f3e afdc 003f
00000020: 6d8c 063f eb29 223f 92a1 8dbe 6eac 3ebe
00000030: 1ddb 613e e24a 76be 3471 333e ce3b 98be
00000040: b1f1 24be 79b9 b63e 37c8 adbe b820 e0be
00000050: 80d2 4b3e 343a e0be ab0f e0be 8b74 cfbe
00000060: 1f2a 263e 0133 0fbe b9aa 9cbe 8757 0b3e
00000070: 99c7 aabc 200c c13e 6424 e03d 0a7b 14be
00000080: 7d7d 8b3e 59b9 003f 4d9d 8e3e bf51 2dbe
00000090: 5ff6 dc3d 2992 2c3f 65e8 a03e 279b 853e
000000a0: e163 343e 6f12 c3be 500d 39be cc4f 883e
000000b0: 4d82 083f eb3d 763e 1af4 1e3f df06 1f3e
000000c0: 6c94 ddbd 3b13 11bf 964c 2cbe 376e 7dbe
000000d0: f3f3 be3e f927 943e 87e5 c03e cfda 76be
000000e0: 207f d53e fcf0 ca3e b2ec 9e3e f23c 293f
000000f0: f29b a93e 7d2f f53e 4722 c73e 5988 853e
00000100: 35be cd3e 6b9a cdbe 30c4 c1be 4694 edbe
00000110: 2ba5 91be 5b63 53be 37db f53e 8732 613f
00000120: 400c 80be 5651 0a3f f951 9b3e 299b 0a3f
00000130: 8a7e fd3e f929 813e 1662 a33e 55f2 ed3e
00000140: a2f0 a6be 7d1a d3be f6e6 74be da52 dabe
00000150: f580 fe3e 8be4 02bf fc93 b73e 484a 0e3f
00000160: 8194 75be 4994 55be 2f46 24be 5b57 d63e
00000170: 891a c53e 42d2 023f f373 393f 7bb1 b7be
00000180: b097 cdbe acef b9be 12a4 753d 9f5c 34be
00000190: fcda e43e d05e a73e 8699 493e c238 d9be
000001a0: 9639 41be e279 46be 403f e03e 0150 d53e
000001b0: 68e5 fd3e 1b1f 0dbe c43c d1be 5cbc 2a3e
000001c0: a1e8 3a3c 22a9 363f 0a40 2fbe a8c9 cfbe
000001d0: 8f9e f1be 8a14 7dbe cc16 a93e d9ba f33e
000001e0: 8d11 abbe abf6 dd3e a732 9bbe fb98 d03e
000001f0: 8fd2 e23e 8ad2 203f 94de 05be ea1b fc3e
00000200: cbe8 af3e 4a7f 313e 9220 9f3e e1b0 043f
00000210: 885e a33e 2995 9a3e df1c 55be 98a2 afbe
00000220: 642e 2bbe 6bb4 25be 95f8 163f 529c 833e
00000230: 2217 463e 7566 2bbe 6faa 49be 415e b83e
00000240: 139c 67be 3bee dabe 60ff 8abe a64c b6be
00000250: 06da 023f bde0 abbe c22d af3e ea05 4fbe
00000260: 7c23 113e 64c0 6ebe 907e d23e 8780 ae3e
00000270: 0113 e0bd a259 76be 7aa4 a83e 8f0e f8bd
00000280: 4132 d6be 8a2f 183d cc39 fd3e ad7a 3f3e
00000290: d1fb b53e 0107 a3be 51ec bd3e c13b 50be
000002a0: 2ae3 173f 207d 083f 1656 323f 7774 fb3e
000002b0: 2661 6fbe e4d0 e33d fb9c 263f ceed 063f
000002c0: c383 a83d 49e4 aebe 2801 c8bd 2023 8fbd
000002d0: 7209 ca3e ee6c d4be d3bc ea3e 00c7 81be
000002e0: 697c c0be e723 7fbe 8f73 a73e aebf 81be
000002f0: d67c 0f3f 104e 9ebd 1823 053f 9f46 56be
00000300: 08df 63be 19ac d03e 6a79 db3d 749a 093f
00000310: ce7a 973e fef6 d2be 3697 963e d9eb 033f
00000320: 4226 093f 109a 1e3f 2b3c eebd d3d1 f23e
00000330: d358 4e3e 9346 cc3d fa48 253f 379b b93e
00000340: 00e7 553f e036 b43e 5b3d d53e 6c6a 223f
00000350: 3f33 b9be 00ce 753e 22b7 203f e07a 113f
00000360: 4388 033f 3d39 a6bd f8cb 28be 49e5 96be
00000370: bc28 6cbe ae37 9b3d 78eb 513d e8fe 83bd
00000380: b832 563c a1e8 2ebe 4e6e 52be ccca 1d3e
00000390: b3ba 4b3d 6584 ac3d cb1a c9bd a26f 7d3e
000003a0: 2de4 93be 641d 6039 8e4d cf3e 3e0c fdbe
000003b0: 73da ad3e 281b fdbe d01a fdbe a420 06bf
000003c0: 23db cebd 18ee 6cbe cde6 ed3e 579e eebe
000003d0: 5d5b 603e 3487 aebe f4be f2bd 17fc 67bd
000003e0: a495 7a3e d4a0 13be a9be 07be 6747 b93d
000003f0: fc8e ad3e f67e 03be 3382 27be bd7c 82bd
0.170077 0.3474023 0.74821895 -0.1595217 0.07240939 0.48993316 0.27950796 0.50336736
0.5255802 0.6334521 -0.2766233 -0.18620464 0.22056241 -0.24052003 0.17523652 -0.29733127
-0.16107823 0.3568838 -0.33941814 -0.43774962 0.19904518 -0.43794405 -0.43761954 -0.40518603
0.16227005 -0.139843 -0.30599 0.13607608 -0.020847129 0.37704563 0.10944441 -0.1450006
0.27244177 0.5028282 0.27854386 -0.16925715 0.10789179 0.6741052 0.31427303 0.26094934
0.17616226 -0.381 -0.18071485 0.2662338 0.53323823 0.24047057 0.6209122 0.15529965
-0.10819325 -0.5666997 -0.1682609 -0.24749075 0.37295493 0.28936747 0.37675115 -0.24106906
0.4169855 0.3963698 0.3103996 0.6610862 0.3312679 0.47887793 0.3889334 0.26080588
0.4018418 -0.40156874 -0.37844992 -0.46402186 -0.28446326 -0.2064337 0.4801881 0.87967724
-0.25009346 0.5403036 0.30335978 0.54143006 0.49510604 0.25227335 0.3191077 0.46473947
-0.32605463 -0.41231146 -0.2391623 -0.42641336 0.4970776 -0.5112998 0.3585509 0.55582094
-0.23982431 -0.20857348 -0.16042398 0.41863522 0.38496807 0.5110208 0.7244255 -0.35877594
-0.4015479 -0.36315668 0.059970923 -0.17613457 0.44698322 0.32689524 0.19687471 -0.42426115
-0.18869624 -0.19382432 0.43798256 0.416626 0.49589086 -0.13781397 -0.40866673 0.16673416
0.011408002 0.71351826 -0.17114273 -0.4058354 -0.47191283 -0.24714866 0.33025205 0.4760349
-0.33411828 0.43352255 -0.30312082 0.40741715 0.44301268 0.6282126 -0.13073188 0.49240047
0.34357294 0.17333713 0.31079537 0.51832396 0.3190806 0.30191925 -0.20811795 -0.34303737
-0.16716915 -0.16182105 0.58973056 0.257052 0.19344762 -0.16738303 -0.19693922 0.3600941
-0.22618131 -0.4275988 -0.2714796 -0.35605353 0.5111393 -0.335699 0.34214598 -0.202171
0.14173692 -0.23315579 0.41112185 0.34082434 -0.10941125 -0.2405763 0.32937986 -0.12112152
-0.41835216 0.03715471 0.49458158 0.18699141 0.35543683 -0.3184128 0.37094358 -0.20335294
0.59331 0.53315926 0.69662607 0.49112293 -0.23376903 0.11123827 0.65083283 0.5270661
0.082282566 -0.34158543 -0.097658455 -0.069891214 0.3946033 -0.41489357 0.45847186 -0.25347137
-0.37594917 -0.2491604 0.32705352 -0.25341552 0.5604986 -0.07729733 0.52006674 -0.20925377
-0.22253048 0.407563 0.10716517 0.537513 0.2958588 -0.41204065 0.2941224 0.5153175
0.53574 0.6195383 -0.1163257 0.47425708 0.20151071 0.099743985 0.6456448 0.36251232
0.83555603 0.35198116 0.41648373 0.63443637 -0.3617191 0.24004364 0.6277944 0.5682812
0.51379794 -0.08116386 -0.16484058 -0.29471806 -0.23062414 0.075789794 0.05124995 -0.06445104
0.013073616 -0.17080928 -0.2054989 0.15409392 0.049738597 0.0842369 -0.098195635 0.24749616
-0.28885022 0.00021373254 0.40488857 -0.49423403 0.33955726 -0.4943478 -0.4943452 -0.52393556
-0.10100391 -0.231377 0.4646515 -0.4660518 0.21909852 -0.34087527 -0.11852828 -0.056636896
0.24471146 -0.1441682 -0.13256325 0.09046822 0.3389815 -0.128414 -0.16358261 -0.06371448

l1.bias f4 [8]
00000000: 8526 e03e e143 883f 968f 703f a738 fa3e
00000010: d81a fd3e 0296 003f fd12 923e 9403 263f
0.43779388 1.0645715 0.93969095 0.48871347 0.49434543 0.50228894 0.28530112 0.6484921

l2.weight f4 [8, 8]
00000000: 10a7 21bf 5c39 55be 3f91 6e3e 5444 f03e
00000010: b98a 873f 0249 d43f dd64 443e a15c 513c
00000020: 70cb fc3e 7f20 0b3d 5446 46bf c298 873f
00000030: 20e0 ed3b 6337 c8be 2f50 793f e6d5 a63f
00000040: bfc8 783e 5238 2e3e afbf 5d3f c00d eabb
00000050: d997 4b3f 2f8c f73e 40b3 9a3e 99a1 8ebf
00000060: 498a a5be 74bb a9be 93a4 b33d b4d2 ddbd
00000070: 5942 91be 60f3 84bd 6886 5dbd 4f6f a63d
00000080: b52d 99be c18e aebf 9e20 91bd e6e6 fb3e
00000090: 5870 6abc 76d2 1e3f 2ea8 803f fb71 663f
000000a0: d1dc 6d3e d427 5ebe 687c 2fbe 96c6 c4be
000000b0: 1bf8 bcbd 6fc3 bfbc 88c1 8dbe 98bd c7be
000000c0: 0a4b 4bbf 0ee4 883f f322 963f 0d3e 2bbf
000000d0: 2ef7 23bf 1848 573f aa66 76bf dafb a03f
000000e0: 37c4 483f 1338 a33f 0016 553f acb6 533f
000000f0: c68d 7e3f 04a9 65bf 1258 f13c d8db 65bf
-0.6314554 -0.20822662 0.23297594 0.4692713 1.058921 1.658478 0.19179101 0.012778432
0.4937396 0.033966538 -0.7745106 1.0593493 0.007259384 -0.39104757 0.97387975 1.3034027
0.24295329 0.17013672 0.8662061 -0.0071427524 0.79528576 0.4834914 0.30214882 -1.1143066
-0.32332066 -0.33150828 0.087716244 -0.10831204 -0.28370932 -0.064917326 -0.054083258 0.08126699
-0.29917684 -1.3637315 -0.07086299 0.491996 -0.014309011 0.6203989 1.0051324 0.9001767
0.23228766 -0.2169488 -0.17137301 -0.3843276 -0.0922701 -0.02340862 -0.27686715 -0.39011836
-0.79411376 1.0694597 1.1729416 -0.66891557 -0.6404904 0.8409438 -0.962504 1.2576859
0.784244 1.2751487 0.83236694 0.8270061 0.9943508 -0.8971102 0.02946094 -0.8978858

l2.bias f4 [8]
00000000: a1fd 37be 6e52 733e 1a96 a9be 8a0c 34be
00000010: 59c3 843e 5182 873d 3abd 433f 1e31 003f
-0.17967845 0.23761913 -0.3312233 -0.17582908 0.25930288 0.06616653 0.7646061 0.50074947

l3.weight f4 [7, 8]
00000000: e970 e93e 20b4 4bbf 6ccf 333e 1be0 a83d
00000010: d5e3 0b3f 58d0 59be a9b7 9d3c 9abe a8bf
00000020: ac75 b0bf 3d42 593f fc57 b2be 9f7f 883e
00000030: 884d 243f ca06 913d 7376 3cbf 51e4 87bf
00000040: 487b c8bf c088 babf 3b9e a03e 2969 a6be
00000050: 911b 6fbd 7aaa 10bd fbbd 573d 7545 4d3f
00000060: cb0a a1be 2827 923c 9d5a 9abf 9177 353e
00000070: 3e38 2abf 2dd0 08be e2dd 723f 78dc 08bf
00000080: 9e0c 4c3f 2d38 963e 8331 2abf 3a67 633d
00000090: af5f 8e3e b8e4 673d 0958 92bf 5d0e fabe
000000a0: 2da0 14bf e66c 0b3f e1cf 9abf e01b 993e
000000b0: fe52 12bf acba b7bd 7eb8 89bf 5dc7 f63e
000000c0: d464 343f 4dac f7be 2c6f 663f 3191 f03d
000000d0: 846b 0cbf c222 c43d 4d57 a6bf 43d9 843e
0.45593956 -0.79571724 0.17559594 0.0824587 0.5464452 -0.21270883 0.019252615 -1.3183167
-1.3785911 0.84866697 -0.34832752 0.26659867 0.64180803 0.07081373 -0.7361824 -1.0616552
-1.5662622 -1.4572983 0.3137072 -0.32502106 -0.0583759 -0.03531883 0.052671414 0.8018411
-0.31453547 0.017840937 -1.2058903 0.17721392 -0.6649207 -0.13360663 0.94869816 -0.5346141
0.7970675 0.29339734 -0.664818 0.055518366 0.27807376 0.056614608 -1.1433116 -0.48839083
-0.5805691 0.5446304 -1.209469 0.2990408 -0.57157886 -0.08971152 -1.0759428 0.48198977
0.7046635 -0.48373643 0.90013385 0.11746443 -0.54851556 0.09576942 -1.2995392 0.25947008

l3.bias f4 [7]
00000000: 9a05 97bd 3a65 ce3d d39b c33c 3ccf 883e
00000010: 6c94 0abf a3e4 ee3d 558b ee3c
-0.07374115 0.10077901 0.023878014 0.26720607 -0.54132724 0.11664703 0.029119173
